model.pt (torch, 3392 bytes, 4 tensors)

weight f4 [16, 4]
000000 85 97 d9 bd d9 73 33 3c 7c d8 76 3e fa 57 b4 3d
       -0.10624603 0.010952913 0.2410602 0.08805843
000010 1b d7 b6 3c 72 fa 45 be a3 2f dd 3d 0f 79 fc bd
       0.022319367 -0.19333819 0.108001016 -0.123277776
000020 14 a9 7c bd a5 c7 05 3e d9 ed 9e 3f 8a 0d 8f 3f
       -0.061684683 0.1306444 1.2416335 1.1176007
000030 16 14 c5 3d f7 3b a9 3e 09 2e b3 3f b6 74 95 3f
       0.09622972 0.33053562 1.3998424 1.1676242
000040 04 f5 99 3e 9e ab 22 3f 37 ce 6b 3f 24 a7 94 3f
       0.30069745 0.6354312 0.92111534 1.1613507
000050 f8 11 b3 be 34 d9 97 be c2 c6 17 c0 a1 cf 96 bf
       -0.34974647 -0.296579 -2.3715062 -1.1782113
000060 e0 1b a2 bd ed 07 d7 bd 35 9e 6c 3f 2f 87 55 3e
       -0.07915473 -0.104995586 0.92428905 0.2085235
000070 df 27 be be d5 e4 0f bf b1 ed 6e bf af bd bd 3c
       -0.37139794 -0.56208545 -0.9333144 0.023161737
000080 f7 ef 4f 3c 1f aa ca bc a6 96 dd be 66 8d 7c 3e
       0.012691489 -0.024739323 -0.43278998 0.24663314
000090 73 30 bc be 65 35 93 be cc f6 13 c0 d6 64 97 bf
       -0.36755714 -0.28751674 -2.3119383 -1.1827648
0000a0 c2 39 a7 be 35 a6 98 be ff 18 17 c0 9a 66 7e bf
       -0.32661253 -0.29814306 -2.3609006 -0.9937531
0000b0 81 b9 42 bf 30 08 84 3c 83 1d 67 bf c6 a7 a7 bf
       -0.76064306 0.016117185 -0.90279406 -1.3098075
0000c0 53 3e fc bd 4b f0 68 3d e5 76 81 be dd db 3b 3e
       -0.12316575 0.056869786 -0.25286022 0.1834559
0000d0 ba 3a cf 3e 69 68 dd 3d 1f 28 c9 3f aa 25 60 3f
       0.40474492 0.1081093 1.5715369 0.8755747
0000e0 97 c5 05 3f 6a b9 12 3f fa aa 2f 40 ef a8 a3 3f
       0.52254623 0.5731417 2.7448106 1.278593
0000f0 46 4b 6f be 62 0f 05 bf cf bd ef bf ca ad b4 bf
       -0.23368558 -0.519766 -1.87298 -1.4115536

bias f4 [16]
000000 05 f5 c2 be c2 d9 9e be b7 03 c4 3e 6e fa 8d 3e
       -0.3807756 -0.3102551 0.38284084 0.27730125
000010 1c 5f 67 bd 21 87 22 3f 37 31 82 bd 85 f6 92 be
       -0.056487188 0.6348744 -0.06357043 -0.28703704
000020 2c ed 06 bf 57 2a 33 3f cf c6 13 3f 69 66 da 3e
       -0.52705646 0.6998648 0.5772523 0.42656258
000030 85 04 bc be 74 8e 32 3e 96 53 e9 3e ce 4a 24 3f
       -0.36722198 0.17437154 0.45571584 0.6417664

weight f4 [2, 16]
000000 d5 a2 56 3c 48 db 7a bd 22 5f 81 be 61 00 ed be
       0.013100346 -0.06124428 -0.25267893 -0.46289352
000010 90 1d 06 bf 49 93 78 3f 6b 59 63 3d 71 3b c6 bc
       -0.5238886 0.9709974 0.055505197 -0.024198266
000020 d6 40 7b 3c e4 8b 74 3f ef 94 89 3f 52 d7 fc 3e
       0.015335282 0.95525956 1.0748576 0.49383026
000030 53 f2 e3 3d aa 5f c3 be 28 f2 8a bf ce cb 5d 3f
       0.11130204 -0.38158923 -1.085515 0.86639106
000040 ec 5a 3e be 1d 5b 82 bc ab 29 d2 3e b2 1b 0f 3f
       -0.18589371 -0.015912587 0.41047415 0.55901635
000050 32 41 1b 3f 8e 45 40 bf bb 73 12 3e 40 18 b9 be
       0.60646355 -0.7510613 0.1430196 -0.36151314
000060 b7 b4 16 bc 87 1a 8c bf 26 61 53 bf e4 41 50 bf
       -0.009198359 -1.0945596 -0.8257011 -0.8135054
000070 e9 5a 17 bc 57 83 92 3e dd 39 31 3f 73 ab 6c bf
       -0.009237983 0.2861583 0.6922892 -0.9244911

bias f4 [2]
000000 75 56 71 3e f9 a2 8a be
       0.23568137 -0.27077463
